Finance/02_Financial_Crime_Graph/notebooks/bitcoin_gnn_model.pth (torch, 174861 bytes, 6 tensors)

conv1.lin_l.weight f4 [128, 165]
-0.011942908 -0.013277557 -0.0005244881 -0.015961759 -0.016745698 -0.016773617 -0.0038527611 -0.017957335
-0.0053271614 0.0053149476 -0.0031830417 -0.027072927 -0.038381048 0.028376171 0.014244652 -0.009907131
-0.005435614 0.0033578791 0.006697941 -0.0042278594 -0.016306486 0.07609769 0.042472824 0.08625749
0.030170785 0.015952006 0.0002947091 0.018586066 0.03964643 0.02792671 0.036545023 -0.004749526
0.010233892 -0.020637508 -0.018905727 -0.00026228116 -0.020254368 -0.0060679633 -0.0044283923 -0.016793014
0.030764068 0.052765302 -0.05042002 0.01113616 0.021718062 0.010923711 -0.018010017 0.016263567
-0.008198915 0.006884436 0.019928018 -0.044065423 -0.007053513 0.005239187 0.035635505 0.03126885
0.0106705325 -0.0027668222 0.01635295 0.05977319 0.07260896 -0.0059304186 -0.03737155 -0.0030487953
0.011392715 0.08024014 0.067717135 -7.7801786e-05 -0.029752763 -0.002268895 -0.004986641 -0.008802945
-0.0036153684 -0.017932756 0.02346905 -0.015872162 -0.018533753 0.04735969 0.009182338 -0.014287477
0.0006195365 -0.012141514 -0.03207876 -0.022323575 0.04541583 -0.045144122 -0.019746345 -0.054521047
-0.022532955 0.04920554 0.024619715 0.022637153 0.026648944 -0.040406615 -0.034670804 -0.0091593275
-0.03140453 -0.010057611 -0.003965022 -0.019380199 -0.022028537 -0.009005635 -0.047713023 0.008184986
0.013083959 -0.009555378 -0.021293636 -0.019250657 -0.0065905126 0.022907663 0.017076937 -0.02340853
-0.05323464 -0.010652044 -0.01468667 -0.005114306 0.00064275536 0.0044599255 -0.013370518 -0.021391476
-0.0017956534 0.00071417616 0.012017031 0.0025244195 0.0151639525 -0.0064634955 0.0014777527 -0.0076927175
0.028094841 0.007973833 -0.040227216 0.00037047602 0.00980571 -0.009641683 -0.020116268 -0.041516837
-0.04825782 -0.11745951 -0.043515347 0.021896001 0.011948656 -0.0036127567 0.0073636253 -0.007021027
-0.015265433 -0.0038198577 -0.0060434733 0.038757265 -0.0009302997 0.04555644 0.04239258 0.039314717
0.057326805 0.004251551 0.08390369 0.04030033 0.0034619812 -0.009443828 -0.012698941 0.015331637
0.0019331826 -0.004273077 0.035007745 -0.00012445712 -0.02623991 -0.020058282 -0.029199025 -0.020593245
-0.024432356 -0.014446249 -0.018650007 0.042941313 -0.030802583 -0.015528696 0.042298067 -0.021933049
0.0015137475 0.00091532 -0.08881092 -0.009214213 -0.0018165034 0.0491645 0.018984934 0.0013441662
0.039566137 0.06149004 -0.013391864 0.007165848 -0.017390192 -0.030085528 -0.03320624 -0.044798803
-0.0009069566 -0.010922418 0.007728502 -0.044545114 -0.03591968 -0.04870826 0.0072132843 0.003106236
0.0023374762 0.0035723946 -0.00094313326 -0.0018519798 -0.013787087 -0.014930373 -0.032480642 -0.018220786
-0.0626346 -0.075701185 -0.013921771 -0.006471166 -0.0328689 -0.011863687 -0.0671962 -0.07003808
-0.07070974 -0.050766353 0.015822701 -0.035331476 -0.056595027 -0.053708628 -0.0010923697 -0.03813925
-0.018614203 -0.003430306 -0.035294175 -0.034971498 -0.0011045535 -0.04421978 0.007862824 -0.045647822
-0.029934177 -0.028345661 0.0010190328 -0.0057822433 -0.00052196276 -0.0010798455 5.2564836e-05 -0.0035665552
-0.0051094578 -0.015335876 -0.0344987 -0.0060034953 0.029927371 0.03609861 0.000121039346 -0.040435623
-0.012060559 -0.0017965748 0.0005125962 0.007079961 -0.042020746 -0.061839227 0.004681482 -0.008114695
00000000: 30ac 43bc 1c8a 59bc cd7d 09ba 3cc2 82bc
00000010: 462e 89bc d368 89bc 9b7e 7cbb 431b 93bc
00000020: 788f aebb 0329 ae3b 949a 50bb 0bc8 ddbc
00000030: 7235 1dbd 2575 e83c 6762 693c 8551 22bc
00000040: 3c1d b2bb dd0f 5c3b 677a db3b db89 8abb
00000050: 2e95 85bc 1bd9 9b3d fcf7 2d3d c4a7 b03d
00000060: b928 f73c c8ad 823c 3083 9a39 ce41 983c
00000070: 4c64 223d 8ec6 e43c 3cb0 153d e9a1 9bbb
00000080: 0eac 273c fe0f a9bc 2fe0 9abc c882 89b9
00000090: 7dec a5bc c4d5 c6bb 0c1c 91bb 8191 89bc
000000a0: ed04 fc3c 6e20 583d 3985 4ebd 7174 363c
000000b0: 14ea b13c 5df9 323c be89 93bc 2c3b 853c
000000c0: be54 06bc d696 e13b 1540 a33c f27d 34bd
000000d0: 2821 e7bb 7cad ab3b 89f6 113d c413 003d
000000e0: 75d3 2e3c 9353 35bb 9ff6 853c bcd4 743d
000000f0: 02b4 943d f553 c2bb e912 19bd 4cce 47bb
00000100: 83a8 3a3c f154 a43d 48af 8a3d 8429 a3b8
00000110: 11bc f3bc beb1 14bb fa66 a3bb 3a3a 10bc
00000120: d1ef 6cbb b7e7 92bc 2a42 c03c 5606 82bc
00000130: 19d4 97bc 3cfc 413d 8471 163c 0616 6abc
00000140: 6468 223a 33ed 46bc 0565 03bd eedf b6bc
00000150: f305 3a3d 0be9 38bd 16c3 a1bc 7651 5fbd
00000160: 0897 b8bc c08b 493d 49af c93c 8d71 b93c
00000170: e34e da3c 6881 25bd f902 0ebd 0111 16bc
00000180: 09a2 00bd aec8 24bc 04ed 81bb 39c3 9ebc
00000190: 3175 b4bc 5f8c 13bc bb6e 43bd 521a 063c
000001a0: 1a5e 563c 298e 1cbc fe6f aebc 8eb3 9dbc
000001b0: 3af5 d7bb daa8 bb3c efe4 8b3c 3fc3 bfbc
000001c0: 910c 5abd e985 2ebc 5ca0 70bc e995 a7bb
000001d0: 957e 283a 9124 923b 0410 5bbc 2d3d afbc
000001e0: 215c ebba 8d37 3b3a 15e3 443c bb70 253b
000001f0: 3a72 783c bbcb d3bb 27b1 c13a 3113 fcbb
00000200: 2727 e63c aea4 023c 4bc5 24bd 733c c239
00000210: 21a8 203c 26f8 1dbc dfca a4bc 8f0d 2abd
00000220: fea9 45bd 9d8e f0bd 263d 32bd 3e5f b33c
00000230: 4cc4 433c 00c4 6cbb 914a f13b a510 e6bb
00000240: de1b 7abc 9456 7abb 5408 c6bb f0bf 1e3d
00000250: 5bdf 73ba 6499 3a3d d8a3 2d3d 7808 213d
00000260: 83cf 6a3d 9850 8b3b b3d5 ab3d f511 253d
00000270: 68e2 623b 49ba 1abc 380f 50bc 8c31 7b3c
00000280: d862 fd3a 2b05 8cbb 4864 0f3d b480 02b9
00000290: 14f5 d6bc 4451 a4bc cb32 efbc 2ab3 a8bc
000002a0: 5d26 c8bc f6af 6cbc e6c7 98bc 3be3 2f3d
000002b0: b355 fcbc 126c 7ebc bd40 2d3d f0ac b3bc
000002c0: f068 c63a 16f2 6f3a 80e2 b5bd 36f7 16bc
000002d0: bd17 eeba b760 493d 4b86 9b3c bc2e b03a
000002e0: 1a10 223d fbdc 7b3d 8c69 5bbc 7dcf ea3b
000002f0: e075 8ebc ed75 f6bc 4403 08bd f37e 37bd
00000300: d4c0 6dba f1f3 32bc 603f fd3b f074 36bd
00000310: 8420 13bd 5082 47bd 6a5d ec3b fe91 4b3b
00000320: 5830 193b d61e 6a3b 9a3c 77ba 21be f2ba
00000330: 3ce3 61bc 869e 74bc 6c0a 05bd c243 95bc
00000340: 9246 80bd 3909 9bbd 2418 64bc 130c d4bb
00000350: 8aa1 06bd e95f 42bc 299e 89bd 2070 8fbd
00000360: 45d0 90bd 61f0 4fbd 9c9e 813c bdb7 10bd
00000370: 30d0 67bd 94fd 5bbd d82d 8fba e737 1cbd
00000380: d07c 98bc fcce 60bb a090 10bd 463e 0fbd
00000390: aac6 90ba cd1f 35bd 13d3 003c 36f9 3abd
000003a0: 8538 f5bc 2935 e8bc 1191 853a f978 bdbb
000003b0: 54d4 08ba 9a89 8dba 1079 5c38 debc 69bb
000003c0: 3d6d a7bb 5343 7bbc 824e 0dbd f8b8 c4bb
000003d0: 3f2a f53c 23dc 133d 81d6 fd38 d39f 25bd
000003e0: a799 45bc 0c7b ebba c05f 063a 04ff e73b
000003f0: f21d 2cbd 214b 7dbd 1e67 993b 7ff3 04bc

conv1.lin_l.bias f4 [128]
-0.023267953 -0.13527974 0.016194189 -0.0885165 -0.027961763 0.05441468 -0.09102305 -0.004714377
-0.09734834 -0.10985091 -0.063716106 -0.007538811 -0.04044532 0.16855308 -0.1412689 -0.03178805
-0.009871963 -0.11096594 -0.0460628 -0.13125478 0.09301669 -0.04840957 -0.061900355 -0.114780806
0.03705228 -0.053182904 -0.016578743 0.04345109 -0.0041090655 -0.012649642 0.032488722 0.021243926
-0.07772513 -0.03465815 -0.18807384 -0.028591216 0.030097378 -0.08946902 -0.09969458 -0.01578846
-0.026890917 -0.08916645 0.06970017 0.09510296 0.004913776 0.08622877 -0.010926575 -0.09802016
-0.11434464 -0.011849934 -0.0015273568 -0.009650539 -0.06166025 -0.02450892 -0.09637966 -0.019372856
-0.03392086 -0.112944566 -0.04299125 -0.002173934 -0.02765798 0.03226628 -0.053195648 -0.056793854
-0.12383321 0.0029240826 -0.09910075 -0.093401745 -0.015296873 0.06053122 0.0026464271 0.010391618
-0.13862737 0.05689706 -0.03472691 -0.052148893 0.013775127 0.006975054 0.00595727 -0.18709469
0.032084763 -0.090729326 -0.06719052 -0.044440873 0.034632146 -0.009644869 -0.13465008 -0.075041845
-0.14873314 -0.03216762 -0.07985923 -0.03601913 0.005539932 0.022491679 0.029963644 -0.066058844
-0.11394085 0.047431763 -0.028187903 0.016061379 -0.05352253 -0.03884281 -0.056465704 -0.019268434
-0.036308646 0.03004655 -0.16707546 0.0037050191 -0.09405752 0.093509726 0.059183404 -0.012106766
-0.040929284 -0.049598765 -0.028264059 -0.06874594 0.031145725 0.0050780997 -0.04262643 0.08151693
-0.0038449166 -0.06241311 -0.047273748 -0.014516225 -0.13771641 -0.09214511 0.0051816492 -0.022317367
00000000: 6f9c bebc c686 0abe ada9 843c 2448 b5bd
00000010: 1110 e5bc ede1 5e3d 4b6a babd 107b 9abb
00000020: 915e c7bd 84f9 e0bd 977d 82bd 2108 f7bb
00000030: fea9 25bd 2e99 2c3e cba8 10be 3034 02bd
00000040: 04be 21bc 1c42 e3bd 59ac 3cbd a767 06be
00000050: 897f be3d 1d49 46bd 3a8b 7dbd 3312 ebbd
00000060: 22c4 173d 51d6 59bd 25d0 87bc c5f9 313d
00000070: 57a5 86bb 7240 4fbc e512 053d be07 ae3c
00000080: 5a2e 9fbd b4f5 0dbd 6e96 40be 2038 eabc
00000090: c78e f63c 893b b7bd ac2c ccbd cd56 81bc
000000a0: 574a dcbc e69c b6bd f6be 8e3d 57c5 c23d
000000b0: be03 a13b b698 b03d 6105 33bc cbbe c8bd
000000c0: 862d eabd 3a26 42bc 9731 c8ba 4b1d 1ebc
000000d0: 758f 7cbd eec6 c8bc b362 c5bd d3b3 9ebc
000000e0: 9af0 0abd 7b4f e7bd 9817 30bd 8f78 0ebb
000000f0: fd92 e2bc a629 043d aee3 59bd aca0 68bd
00000100: 449c fdbd f7a1 3f3b 56f5 cabd 6a49 bfbd
00000110: bc9f 7abc 96ef 773d ae6f 2d3b 9b41 2a3c
00000120: 55f4 0dbe e40c 693d ce3d 0ebd 149a 55bd
00000130: 12b1 613c fe8e e43b 3435 c33b c095 3fbe
00000140: 506b 033d 4cd0 b9bd 2f9b 89bd a207 36bd
00000150: 70da 0d3d 8305 1ebc b6e1 09be 8aaf 99bd
00000160: 804d 18be 32c2 03bd 3c8d a3bd cc88 13bd
00000170: 5188 b53b 7840 b83c 5176 f53c dc49 87bd
00000180: d259 e9bd cf47 423d 51ea e6bc 2793 833c
00000190: 713a 5bbd a319 1fbd 9548 67bd d6d8 9dbc
000001a0: 60b8 14bd 2f24 f63c d415 2bbe e8cf 723b
000001b0: 3ba1 c0bd 0782 bf3d 4c6a 723d 755b 46bc
000001c0: 77a5 27bd 1328 4bbd 078a e7bc acca 8cbd
000001d0: 5225 ff3c 3066 a63b 0d99 2ebd 59f2 a63d
000001e0: fffa 7bbb e4a4 7fbd 1ea2 41bd 76d5 6dbc
000001f0: 8805 0dbe 93b6 bcbd d3ca a93b e9d2 b6bc

conv1.lin_r.weight f4 [128, 165]
0.026981859 -0.03498044 0.047062498 0.027919063 0.012763463 0.011408607 0.014112543 0.015237415
0.020735288 0.03855186 0.027193902 -0.04967294 -0.05912562 0.014335509 -0.0012218549 0.0035514084
0.022809388 0.020747172 0.024136363 -0.030397866 -0.053653695 0.04416354 0.089108296 -0.0038002545
0.09775486 -0.017006269 -0.014365 0.031076588 0.05824626 0.06314789 0.06029325 0.0020529479
-0.007405887 -0.00828301 -0.009241178 -0.009971448 -0.008686771 -0.0684758 -0.048976026 -0.031266678
0.015105733 0.059308004 0.0074104355 0.07595333 0.05947304 0.007643189 0.010895826 -0.00887658
-0.0014023539 0.015677022 0.07157595 0.030362183 0.044891268 0.09434855 -0.0001866048 -0.016496826
0.082360275 0.026197989 0.00046429771 0.010543651 0.07101491 -0.08166458 -0.07415001 0.028967345
0.069686115 0.04026819 0.09222272 -0.090533346 -0.08920561 -0.042847175 -0.0013603705 0.0029771961
0.0059984475 0.07206735 -0.017627217 -0.0075051812 0.035158314 0.04783758 0.01614851 0.054661185
0.083967194 0.062095407 0.08061025 0.046466064 0.09249441 0.053590864 0.034975346 -0.10987914
0.09513801 0.11815644 0.0074595124 -0.031683914 0.00061205507 0.0002480307 -0.01336524 -0.04300724
-0.0017086214 -0.015028332 -0.01285712 -0.059454445 -0.06654407 -0.06341448 -0.038407374 -0.010938208
0.026910778 0.00319782 -0.0008113111 -0.01658471 -0.01481337 -0.026009955 0.007152685 0.034765054
0.0061072265 -0.03899593 -0.032636 0.021822426 0.037268855 -0.008902968 0.04444573 0.00019318558
-0.0054879854 -0.0043992624 0.032573998 0.03051351 0.03796729 0.018800946 0.018806769 -0.067735985
-0.046385616 -0.008693223 0.062097553 0.0513437 0.030312931 -0.0061649317 -0.02081436 -0.0756928
-0.08414309 -0.007852359 -0.07474118 -0.016505562 0.04448014 -0.06672853 0.050399616 -0.025441833
-0.0450426 -0.05824167 -0.054337602 -0.098980114 -0.00067065225 -0.056928836 -0.046300948 0.016878331
0.031928565 -0.15346211 0.122575 0.0077153845 -0.03087405 0.013725578 0.023621742 0.009112153
0.061757285 0.06817163 0.04082625 0.027692521 0.034363635 0.013627466 0.065761685 -0.032015562
0.008170053 0.10125589 -0.03251258 -0.017447514 0.007139952 0.055227194 -0.009963348 0.00214702
0.036730297 0.03463191 0.123777725 0.00042753143 -0.0003477565 0.005126097 0.008271432 0.0070489794
0.013444829 0.022111738 0.002331186 -0.007786824 -0.04294112 -0.023260226 -0.051122565 0.00790275
0.001769086 0.01490636 0.010353635 -0.04409641 -0.00069584005 0.0033941611 -0.0013776763 -0.0018119945
-0.00089140737 -0.0015476996 -0.059474077 -0.034702852 0.011962689 -0.0031768784 -0.010559553 0.015689509
-0.01043796 -0.026267357 0.0077412007 -0.016504226 -0.04515645 -0.017069863 -0.0060069766 -0.013778141
-0.060943507 -0.07294785 -0.0083583025 -0.084611155 -0.025153428 -0.023548493 -0.022382248 -0.08854509
-0.01733399 -0.05080679 -0.041805744 -0.035462014 0.0030885215 -0.017891826 0.008070545 -0.036512002
-0.039830964 -0.029426947 -0.00059163425 0.017385302 0.0022602417 0.0017054761 -0.012679312 -0.0148372045
-0.00092474 -0.03097448 -0.026199557 -0.0002714388 0.08807786 0.0755814 -0.024536537 0.013116436
-0.035156768 0.006155684 0.054994266 0.06262569 -0.026338177 0.004516938 -0.037171982 0.018584732
00000000: 0f09 dd3c a647 0fbd 9bc4 403d 85b6 e43c
00000010: d81d 513c 2aeb 3a3c 4c38 673c 5aa6 793c
00000020: 0ddd a93c 8ee8 1d3d bfc5 de3c da75 4bbd
00000030: b52d 72bd 7cdf 6a3c a626 a0ba bfbe 683b
00000040: c1da ba3c f9f5 a93c 9fb9 c53c f204 f9bc
00000050: fac3 5bbd d4e4 343d 697e b63d b10d 79bb
00000060: b333 c83d bb50 8bbc 2d5b 6bbc 5494 fe3c
00000070: a193 6e3d ae53 813d 0ef6 763d c08a 063b
00000080: 15ad f2bb 76b5 07bc 4f68 17bc 495f 23bc
00000090: f552 0ebc 0a3d 8cbd 169b 48bd 7d11 00bd
000000a0: 097e 773c f3ec 723d 3dd3 f23b 6b8d 9b3d
000000b0: 019a 733d b773 fa3b 6884 323c 136f 11bc
000000c0: 30cf b7ba 196d 803c 6996 923d 1dba f83c
000000d0: e8df 373d d039 c13d 58ab 43b9 5a24 87bc
000000e0: 81ac a83d 2a9d d63c fc6c f339 47bf 2c3c
000000f0: 4470 913d c23f a7bd f6db 97bd ed4c ed3c
00000100: 98b7 8e3d 42f0 243d 44df bc3d 8c69 b9bd
00000110: 6eb1 b6bd 8580 2fbd 764e b2ba 101d 433b
00000120: a08e c43b 0c98 933d f466 90bc 06ee f5bb
00000130: 2a02 103d 57f1 433d e149 843c 68e4 5f3d
00000140: fef6 ab3d c157 7e3d fd16 a53d 3353 3e3d
00000150: b66d bd3d 1882 5b3d 4f42 0f3d 5108 e1bd
00000160: b8d7 c23d 01fc f13d ed6e f43b fec6 01bd
00000170: 5272 203a 1e0a 8239 e1f9 5abc 5c28 30bd
00000180: d2f3 dfba 6539 76bc aba6 52bc 8186 73bd
00000190: 4248 88bd 73df 81bd 0d51 1dbd 2b36 33bc
000001a0: fe73 dc3c 8492 513b 2bae 54ba a8dc 87bc
000001b0: c7b3 72bc d412 d5bc 1261 ea3b cd65 0e3d
000001c0: 211f c83b 32ba 1fbd 54ad 05bd f2c4 b23c
000001d0: 3aa7 183d c1dd 11bc ba0c 363d dc91 4a39
000001e0: 8fd4 b3bb b027 90bb 506c 053d 78f7 f93c
000001f0: 9783 1b3d 7104 9a3c a710 9a3c 2ab9 8abd
00000200: d8fe 3dbd 056e 0ebc 015a 7e3d c64d 523d
00000210: d352 f83c 3203 cabb e082 aabc d404 9bbd
00000220: 3653 acbd 2ea7 00bc e711 99bd ac36 87bc
00000230: cf30 363d f8a8 88bd d46f 4e3d 646b d0bc
00000240: 977e 38bd d18e 6ebd 1b91 5ebd 16b6 cabd
00000250: b6ce 2fba 362e 69bd 10a6 3dbd 6d44 8a3c
00000260: 87c7 023d 2c25 1dbe 9a08 fb3d 56d1 fc3b
00000270: 93eb fcbc 3fe1 603c 6282 c13c 244b 153c
00000280: 35f5 7c3d 919d 8b3d 6d39 273d 6ddb e23c
00000290: e2c0 0c3d bc45 5f3c 10ae 863d c022 03bd
000002a0: b0db 053c 405f cf3d e92b 05bd 17ee 8ebc
000002b0: 42f6 e93b e935 623d 4f3d 23bc 05b5 0c3b
000002c0: 8272 163d 31da 0d3d 2d7f fd3d 4c26 e039
000002d0: 1653 b6b9 d1f8 a73b e684 073c 20fb e63b
000002e0: b347 5c3c ad23 b53c d0c6 183b 9d28 ffbb
000002f0: 07e3 2fbd 3b8c bebc e565 51bd 897a 013c
00000300: ade0 e73a ce39 743c 4ba2 293c 709e 34bd
00000310: 0969 36ba 9370 5e3b 2593 b4ba 7280 edba
00000320: 56ad 69ba 2edc caba 179b 73bd 9424 0ebd
00000330: 28ff 433c 2d33 50bb fa01 2dbc 4987 803c
00000340: fa03 2bbc a42e d7bc e6a9 fd3b df33 87bc
00000350: f8f5 38bd 19d6 8bbc 2cd6 c4bb b6bd 61bc
00000360: e69f 79bd af65 95bd 43f1 08bc 9d48 adbd
00000370: 900e cebc c5e8 c0bc fa5a b7bc 2157 b5bd
00000380: 0300 8ebc c81a 50bd 803c 2bbd 9e40 11bd
00000390: cb68 4a3b e191 92bc 523a 043c 9c8d 15bd
000003a0: cb25 23bd c810 f1bc e717 1bba 9f6b 8e3c
000003b0: 9020 143b 488a df3a e4bc 4fbc bf17 73bc
000003c0: 406a 72ba 31be fdbc 74a0 d6bc e64f 8eb9
000003d0: 2a62 b43d 6cca 9a3d d900 c9bc 52e6 563c
000003e0: 8b00 10bd 9fb5 c93b ab41 613d e641 803d
000003f0: 29c3 d7bc d202 943b a641 18bd 023f 983c

conv2.lin_l.weight f4 [2, 128]
-0.04136487 0.1122745 0.056448936 0.033366885 -0.014490354 0.016719136 0.101646185 -0.06923806
-0.000579863 0.032032155 0.005209067 0.04860637 0.0027485713 -0.058167715 0.12010707 0.11039053
-0.028224515 0.05773659 -0.033851076 0.015286343 -0.023053693 0.031326674 0.028581176 -0.12053405
-0.04223148 -0.06265077 -0.016610732 0.097380616 0.029585788 0.09894813 0.02351464 -0.07258072
-0.021377271 0.03680691 -0.046302512 -0.014840553 0.035887707 0.05554632 -0.088269316 -0.033038925
0.042470604 -0.02658983 -0.03871955 -0.033731557 0.08663917 0.08677183 0.05019334 -0.031083686
-0.0015215477 0.05970578 0.100828774 0.054849483 0.007452592 0.030766688 0.059453674 -0.00068098225
-0.038840327 -0.034052152 -0.03635365 -0.06272662 -0.108072154 -0.04264398 0.09282608 0.050786786
-0.06142991 -0.010305277 0.018139258 0.09383993 0.10681631 -0.106048934 0.011437734 -0.01568877
0.15498285 0.032777604 -0.053591367 0.09461074 0.0043595377 0.047549654 -0.118391484 0.0057176715
0.10911502 -0.04936694 -0.01254853 -0.038767383 0.013675181 0.046840165 -0.06317472 0.15212213
0.044315603 -0.060262457 -0.00630583 -0.15447007 -0.07852453 0.006421813 -0.072066166 -0.025488304
-0.102592155 -0.00116629 0.012571201 0.06611523 -0.031466924 0.041407846 0.013274631 -0.018491333
0.10652584 0.028707944 0.018077202 0.10267441 0.030021617 -0.01094596 -0.029246004 0.04057317
0.093035825 -0.0008603251 -0.038837895 0.013073195 -0.0109089855 0.098299384 0.003984858 0.0080337105
-0.023204725 0.05195824 0.01595573 0.040284313 -0.08491752 0.0431095 -0.07515232 -0.009710866
0.04628905 -0.037356447 -0.025025597 -0.07118746 -0.10230828 0.04975367 -0.050646726 0.042434134
-0.060699612 -0.055125788 -0.038634073 -0.008340434 0.05762965 -0.0079775425 0.02706832 -0.13139658
0.04374712 0.00078895024 -0.060161624 -0.106984146 -0.015826436 -0.07287453 0.03869256 -0.0038138484
-0.017300876 0.12135894 -0.09572412 -0.03020524 0.008578498 -0.048851766 0.042313546 -0.04849025
0.036963344 -0.026405336 -0.013141743 0.07393513 -0.02153231 -0.10536872 -0.0490499 0.011080008
0.047359113 0.031340115 -0.047169365 0.022203952 0.019789463 -0.020420993 0.018934833 0.018242165
-0.018755168 -0.03238181 -0.079481326 -0.069635764 -0.08694852 -0.0076410463 0.008610872 0.096135795
-0.034836072 -0.070537314 0.061351456 -0.043782044 -0.02436135 0.12685317 0.02072652 -0.038874514
0.012070588 0.0050190664 -0.047237344 -0.15870306 -0.06999183 -0.061232556 -0.046605535 0.004401764
-0.057276692 0.030978736 -0.031610887 -0.005282403 -0.004236317 -0.0337217 0.141371 0.042970873
0.0012595688 -0.08071776 0.08705292 0.06838645 0.06263319 0.01920948 0.105523914 -0.077776216
0.106147006 -0.050486036 -0.00896025 0.05895416 -0.06622028 -0.042024776 -0.030402636 -0.0064227437
-0.0036800203 0.04950788 -0.03397486 -0.032613866 -0.07617944 -0.0027356076 -0.03461469 0.005914239
-0.063121125 0.10787324 0.106992446 -0.009574093 -0.09064157 0.024564752 0.051265575 -0.03568598
-0.11003445 0.047651593 -0.049638487 0.026470253 -0.037968114 -0.042919107 -0.07666615 0.07575144
-0.08472555 -0.077847704 -0.020418314 -0.028300695 -0.015706735 -0.09638509 0.0012765583 0.033807717
00000000: 366e 29bd 2cf0 e53d 0037 673d b7ab 083d
00000010: f368 6dbc 92f6 883c e02b d03d afcc 8dbd
00000020: f201 18ba 2634 033d d2b0 aa3b 7917 473d
00000030: 6021 343b 4541 6ebd b2fa f53d 6e14 e23d
00000040: 1937 e7bc 347d 6c3d 6da7 0abd 9273 7a3c
00000050: 19db bcbc 6650 003d 1223 ea3c 8eda f6bd
00000060: ebfa 2cbd 0c4f 80bd 3b13 88bc 7d6f c73d
00000070: e55d f23c 51a5 ca3d c6a1 c03c 33a5 94bd
00000080: 631f afbc d8c2 163d b4a7 3dbd ca25 73bc
00000090: fdfe 123d 8a84 633d 8bc6 b4bd d353 07bd
000000a0: a8f5 2d3d ead2 d9bc 6498 1ebd 1a2a 0abd
000000b0: e16f b13d 6eb5 b13d 8897 4d3d 37a3 febc
000000c0: ab6e c7ba 0c8e 743d 517f ce3d daa9 603d
000000d0: df34 f43b 6c0a fc3c b285 733d f283 32ba
000000e0: 0917 1fbd 457a 0bbd 91e7 14bd d076 80bd
000000f0: ef54 ddbd 74ab 2ebd 9a1b be3d ce05 503d
00000100: ee9d 7bbd 77d7 28bc c898 943c 262f c03d
00000110: 82c2 da3d 2f30 d9bd 5565 3b3c bc85 80bc
00000120: d3b3 1e3e cf41 063d 9f82 5bbd 47c3 c13d
00000130: 74da 8e3b 6dc3 423d 3c77 f2bd 4e5b bb3b
00000140: b277 df3d fd34 4abd 5998 4dbc 8cca 1ebd
00000150: de0d 603c 79db 3f3d bf61 81bd e7c5 1b3e
00000160: 4784 353d c4d5 76bd 23a1 cebb 672d 1ebe
00000170: 78d1 a0bd 126e d23b 6d97 93bd d9cc d0bc
00000180: d61b d2bd 33de 98ba 70f7 4d3c 6c67 873d
00000190: 76e3 00bd 469b 293d d77d 593c 237b 97bc
000001a0: 382a da3d ec2c eb3c a416 943c f646 d23d
000001b0: e5ef f53c af56 33bc 5195 efbc 0d30 263d
000001c0: 9189 be3d 7187 61ba 7c14 1fbd f430 563c
000001d0: 9abb 32bc 3051 c93d 6993 823b d39f 033c
000001e0: d617 bebc 2ad2 543d 97b5 823c 2a01 253d
000001f0: 3de9 adbd 9693 303d 76e9 99bd 531a 1fbc
00000200: 9699 3d3d 1303 19bd 7b02 cdbc bbca 91bd
00000210: 0187 d1bd 81ca 4b3d f172 4fbd 6acf 2d3d
00000220: 28a0 78bd 94cb 61bd c33e 1ebd 51a6 08bc
00000230: 110d 6c3d 3db4 02bc 62be dd3c d38c 06be
00000240: 2e30 333d 8ed1 4e3a 096c 76bd 811a dbbd
00000250: 71a6 81bc 3e3f 95bd 177c 1e3d c2f1 79bb
00000260: 91ba 8dbc 098b f83d 020b c4bd fb70 f7bc
00000270: d48c 0c3c ca18 48bd f850 2d3d b69d 46bd
00000280: e066 173d 0150 d8bc 7750 57bc 4d6b 973d
00000290: 8764 b0bc 8ecb d7bd 8ce8 48bd ec88 353c
000002a0: a1fb 413d 7e5e 003d aa34 41bd 10e5 b53c
000002b0: 831d a23c ed49 a7bc 391d 9b3c 9870 953c
000002c0: 70a4 99bc caa2 04bd 1bc7 a2bd 329d 8ebd
000002d0: 1112 b2bd be61 fabb 9d14 0d3c d8e2 c43d
000002e0: 45b0 0ebd de75 90bd aa4b 7b3d cd54 33bd
000002f0: 7491 c7bc cce5 013e aaca a93c e23a 1fbd
00000300: b7c3 453c fb76 a43b f27b 41bd 0e83 22be
00000310: e057 8fbd fdce 7abd 72e5 3ebd ac3c 903b
00000320: f79a 6abd 1ec7 fd3c 6b7a 01bd 0218 adbb
00000330: cdd0 8abb c41f 0abd 8fc3 103e 3a02 303d
00000340: 1e18 a53a 5a4f a5bd cd48 b23d 320e 8c3d
00000350: d445 803d 335d 9d3c ec1c d83d 2349 9fbd
00000360: 9a63 d93d 72ca 4ebd 03ce 12bc eb79 713d
00000370: 809e 87bd 2c22 2cbd f30e f9bc e175 d2bb
00000380: 7f2c 71bb c6c8 4a3d 3929 0bbd 1e96 05bd
00000390: f703 9cbd e147 33bb 22c8 0dbd 3ccc c13b
000003a0: a645 81bd a5ec dc3d db1e db3d a8dc 1cbc
000003b0: 4aa2 b9bd 053c c93c dafb 513d 762b 12bd
000003c0: be59 e1bd 512e 433d ba51 4bbd 25d8 d83c
000003d0: 7484 1bbd f2cb 2fbd 2403 9dbd 9223 9b3d
000003e0: 9784 adbd 9e6e 9fbd 4f44 a7bc dcd6 e7bc
000003f0: 69ab 80bc 8c65 c5bd 3052 a73a f679 0a3d

conv2.lin_l.bias f4 [2]
0.03292315 -0.04849001
00000000: 6dda 063d 769d 46bd

conv2.lin_r.weight f4 [2, 128]
0.05054246 -0.014472461 0.097982876 0.063525476 0.115568556 0.13595903 0.052181408 -0.05710863
0.035534166 0.17524515 -0.028995702 0.19205394 -0.05272689 0.15421784 0.0990826 0.101840265
0.03612909 0.20649865 0.12548432 -0.046866544 0.096320674 -0.0015681335 0.109247 -0.06353293
0.09625829 -0.09242672 0.13824056 0.1341748 0.080102 0.05267854 0.13385114 0.12750402
-0.045713972 0.0456077 -0.061044913 -0.045389842 0.050280675 0.05033349 -0.03709624 0.11299155
0.08505393 0.034197077 0.12672718 0.09716873 0.14274219 0.0729928 0.11631086 -0.090681374
-0.08462357 0.09265461 0.08001132 0.08758905 0.09756714 0.07611788 -0.023594845 0.13086663
0.11465071 0.09498862 -0.044168122 -0.06591685 0.084990755 0.08630573 0.017502008 0.1434972
-0.109256245 0.046797976 0.15438053 0.07305305 0.11482911 0.109006196 0.10213713 -0.07014456
0.007117193 0.112875655 0.026627386 0.026535261 0.1504475 0.1227334 -0.026709704 -0.10920413
0.21475892 -0.014871192 -0.085015066 -0.029558767 0.0959674 0.16588427 -0.19330773 0.045300152
-0.017115902 0.014233565 0.07612368 0.0450188 0.13485467 0.16052654 0.11549364 0.15369071
-0.12824364 0.15307866 0.1465437 0.058531396 0.064508826 -0.040194318 0.09746575 0.1525829
0.039688047 0.048194684 -0.14610736 0.12090319 -0.01572437 0.1103466 0.090398565 0.13064043
0.055861633 -0.015527735 0.13447575 0.1075623 0.08309608 0.1865482 0.0074325916 0.12208976
0.09825658 0.011981509 -0.03664351 0.06194843 -0.0661865 0.04960499 0.13801351 -0.025237285
-0.11439482 0.0127291605 -0.17481689 -0.022132285 -0.049070697 -0.1384864 -0.057764962 0.087033525
-0.027786128 -0.025347577 0.024924627 -0.045320615 0.026656132 -0.21025014 -0.057916243 -0.045271665
-0.106308006 -0.14729029 -0.030255564 0.061534785 -0.102005236 -0.034489833 -0.13051608 0.06507003
-0.18145503 -0.017040925 -0.10652747 -0.13230261 -0.12771595 -0.096155316 -0.13936156 -0.06274611
0.053980418 -0.1306943 0.117023855 -0.04586646 -0.120494954 -0.02245154 0.06734018 -0.2212333
-0.11999385 -0.057952102 -0.13368882 -0.11998217 -0.082558 -0.13043308 -0.11782871 0.015936734
0.018103627 -0.03407781 -0.0110606225 -0.11601855 -0.20933755 -0.14212911 -0.0852692 0.014359663
-0.11787334 -0.17016976 0.034943163 0.012251119 -0.047042936 -0.046016946 -0.14790066 -0.02083494
0.16468288 -0.13114552 -0.083152145 -0.12418108 -0.05198073 -0.16001509 -0.14332771 -0.014867841
-0.075888366 -0.08015409 -0.15782322 0.052960567 -0.046156608 -0.17058143 -0.08881661 0.12126003
-0.0686137 0.021339668 0.08439814 0.07383001 -0.111750215 -0.08347067 0.11914668 -0.013720186
0.11263959 -0.14242038 -0.040867407 0.10721385 -0.10683396 -0.080279395 -0.16508016 -0.050314523
0.08059675 -0.10826997 -0.03772671 -0.19189744 -0.11063782 0.03676166 -0.10473008 -0.036793247
-0.079693295 -0.11575115 0.06270519 0.014538917 -0.09793134 -0.13178979 -0.15443283 -0.07488145
0.00705841 0.063511625 -0.078057185 -0.03604259 -0.104332134 -0.044603784 0.039135642 -0.052389197
-0.11298529 -0.12488602 0.118255295 -0.059186444 0.07816707 -0.087724075 -0.044385523 -0.060335018
00000000: 9c05 4f3d e71d 6dbc 3fab c83d a519 823d
00000010: 35af ec3d d838 0b3e 2cbc 553d bdea 69bd
00000020: 468c 113d 7773 333e 6588 edbc caa9 443e
00000030: 27f8 57bd 48eb 1d3e d1eb ca3d a191 d03d
00000040: 19fc 133d 6274 533e f67e 003e 22f7 3fbd
00000050: c643 c53d d489 cdba e4bc df3d 8e1d 82bd
00000060: 1123 c53d 384a bdbd ef8e 0d3e 1e65 093e
00000070: 840c a43d 74c5 573d 4610 093e 6a90 023e
00000080: 933e 3bbd 24cf 3a3d 3b0a 7abd b3ea 39bd
00000090: 1cf3 4d3d 7d2a 4e3d 3af2 17bd 1d68 e73d
000000a0: c130 ae3d 3c12 0c3d c5c4 013e 6600 c73d
000000b0: 022b 123e 407d 953d 6334 ee3d 28b7 b9bd
000000c0: 1f4f adbd b3c1 bd3d fadc a33d e361 b33d
000000d0: 48d1 c73d b1e3 9b3d fa49 c1bc e701 063e
000000e0: fecd ea3d 6589 c23d a2e9 34bd 6aff 86bd
000000f0: a20f ae3d 0fc1 b03d 5f60 8f3c eef0 123e
00000100: bdc1 dfbd 3caf 3f3d ee15 1e3e d69c 953d
00000110: 862b eb3d a43e df3d 462d d13d f3a7 8fbd
00000120: 5837 e93b 5a2b e73d ad21 da3c 7a60 d93c
00000130: e90e 1a3e a65b fb3d 4fce dabc 6aa6 dfbd
00000140: c3e9 5b3e 4da6 73bc 611c aebd 3a25 f2bc
00000150: 8e8a c43d 91dd 293e 76f2 45be a78c 393d
00000160: a636 8cbc e633 693c bbe6 9b3d a265 383d
00000170: 5817 0a3e 1261 243e ee87 ec3d 1961 1d3e
00000180: 4d52 03be a7c0 1c3e 8d0f 163e 9ebe 6f3d
00000190: 341d 843d cca2 24bd 209c c73d b13e 1c3e
000001a0: ef8f 223d ca67 453d 2b9d 15be 179c f73d
000001b0: 65d0 80bc 66fd e13d e222 b93d 9bc6 053e
000001c0: 2bcf 643d 0b68 7ebc 03b4 093e a049 dc3d
000001d0: 472e aa3d 7e06 3f3e 198d f33b 320a fa3d
000001e0: bf3a c93d 174e 443c 8117 16bd a3bd 7d3d
000001f0: ca8c 87bd 9a2e 4b3d 6a53 0d3e 6cbe cebc
00000200: d547 eabd f88d 503c 3303 33be c44e b5bc
00000210: 5bfe 48bd 61cf 0dbe f49a 6cbd a23e b23d
00000220: bc9f e3bc b9a5 cfbc bb2e cc3c 1ca2 39bd
00000230: f65d da3c d04b 57be 9539 6dbd c86e 39bd
00000240: 03b8 d9bd 44d3 16be 84da f7bc e60b 7c3d
00000250: 1fe8 d0bd 3645 0dbd 02a6 05be 7043 853d
00000260: 59cf 39be 6999 8bbc 132b dabd 567a 07be
00000270: f8c7 02be 14ed c4bd ccb4 0ebe 0881 80bd
00000280: 921a 5d3d bad4 05be 34aa ef3d 78de 3bbd
00000290: 0fc6 f6bd 4bec b7bc a6e9 893d fb8a 62be
000002a0: 56bf f5bd 2f5f 6dbd b9e5 08be 36b9 f5bd
000002b0: 2b14 a9bd 4090 05be 2e50 f1bd c18d 823c
000002c0: 0f4e 943c 2c95 0bbd 9d37 35bc 229b edbd
000002d0: 955c 56be 4b8a 11be 9ea1 aebd cb44 6b3c
000002e0: 9467 f1bd fb40 2ebe 9020 0f3d ebb8 483c
000002f0: 18b0 40bd 447c 3cbd 4573 17be 09ae aabc
00000300: a1a2 283e 034b 06be ac4b aabd a652 febd
00000310: bfe9 54bd ffda 23be 80c4 12be 3f98 73bc
00000320: 5c6b 9bbd d427 a4bd 699c 21be 2eed 583d
00000330: b60e 3dbd e6ac 2ebe 7ce5 b5bd 2e57 f83d
00000340: 5785 8cbd 87d0 ae3c efd8 ac3d 3034 973d
00000350: 4cdd e4bd acf2 aabd 2d03 f43d a2ca 60bc
00000360: 96af e63d a6d6 11be 9564 27bd ef92 db3d
00000370: c3cb dabd 8669 a4bd c60a 29be 9a16 4ebd
00000380: e90f a53d a5bc ddbd 5387 1abd c380 44be
00000390: 1596 e2bd 6593 163d b97c d6bd 84b4 16bd
000003a0: 3d36 a3bd f00e edbd 946b 803d a334 6e3c
000003b0: 3a90 c8bd e7f3 06be a423 1ebe 725b 99bd
000003c0: 3c4a e73b 6212 823d 72dc 9fbd 65a1 13bd
000003d0: 16ac d5bd 75b2 36bd b24c 203d 0e96 56bd
000003e0: d564 e7bd 3ec4 ffbd d52f f23d 7c6d 72bd
000003f0: 0f16 a03d aea8 b3bd 98cd 35bd da21 77bd
